onnx/model.onnx (onnx, 18186 bytes, 5 tensors)

sequential_6_1/dense_20_1/Cast/ReadVariableOp:0 f4 [32, 1]
00000000: 6358 a8be 22bd 863e 5678 033f a013 9d3e
00000010: da7d bc3e 8f1f 3cbe 7946 883d e3ac 0f3f
00000020: 42af 453e f6e4 443c c6f0 783e 7593 2bbe
00000030: 0d72 6dbd 0c25 7d3c 7d75 edbb e5cb 2abe
00000040: edc7 3bbd a80c 1f3e 82e0 c1be 3675 59be
00000050: d64e 013f b1eb 1f3e b23c 363f a241 94bd
00000060: e27f f2bc bbd2 083e 2321 c3bd 1833 8c3e
00000070: 2e83 4fbe cecb dbbe c817 6fbd a0ce 9ebd
-0.32879934 0.26316172 0.51355493 0.30679035 0.36814767 -0.18371414 0.066540666 0.5612318
0.19305137 0.012017479 0.24310598 -0.16755469 -0.057970095 0.015450727 -0.0072466717 -0.16679342
-0.04584496 0.15532172 -0.37866598 -0.21236119 0.5051092 0.15617253 0.71186364 -0.07239081
-0.029601995 0.13361637 -0.09527805 0.2738273 -0.20264885 -0.42928928 -0.05837229 -0.07754254

sequential_6_1/dense_19_1/Cast/ReadVariableOp:0 f4 [64, 32]
00000000: 590b 81be 4b5f 54be 9bb8 1dbe 59ca b93d
00000010: 5e55 aabe f95e dbbe a70d 443d ca9b 44be
00000020: 1b40 363e 29bf e8bd a847 d2bd fe96 a8be
00000030: b731 1e3e 5ac7 a8be cc88 ef3b a0cf 73be
00000040: f2b0 9dbb 5572 13be 45c7 8abe 8bc3 2f3d
00000050: 443f aabe 37cf 59bd 9487 47bf 0722 09bd
00000060: e62c 07bd 6508 f3be 344f 7dbd 8b6d cc3e
00000070: 8181 92be 4678 64be 9f0d 463d d627 983d
00000080: 7376 f33e f896 51be c8a3 5bbe 15f1 88be
00000090: 7a12 54be e4cc b93e dc4d b83d 9646 e4be
000000a0: 8d74 90be a262 ce3e a947 01bd 3dc6 313e
000000b0: 57c4 383e 25b5 6e3c 3579 94be 6d2e a43e
000000c0: 8afd 043f c695 f33c 92e3 ea3e 084e 6c3e
000000d0: 14d6 0abf c63f dfbe e84e 83be eb8f f73e
000000e0: 9034 663e 2579 94be 177f d93e 1515 e1bd
000000f0: a3f2 df3b a359 0c3e e83c 973e a83c 4c3e
00000100: 7b10 693e c5a5 43be 9df0 b7be 3292 0dbd
00000110: c460 08be 9f0d 21be 2a8a dcbd 1db0 f1be
00000120: e8a9 36bf bbbd 70be 31bf 9bbe 645e de3c
00000130: 85c7 0c3e f43e d3bd cf17 453d da2c 853e
00000140: 2ece 6e3e e6b7 6dbe c58b e03d 965d a73d
00000150: 665e cabe 1567 acbe b3fe 07bf 753a 993e
00000160: e6f8 82be 775f 86be 72ed f33d 0263 a6be
00000170: 904a f2bd 53c0 04be 8c98 4dbc 3556 613e
00000180: 8372 8b3e 3f4a a4be d5ff c23d cc64 5ebe
00000190: 78a6 9bbe 9837 1ebe e1c3 42be bd8e 0cbf
000001a0: 7767 c2be 646e 94bd 4ac3 83bd 9266 c63d
000001b0: 6e45 0fbe 1419 69be e1e3 8c3b 3087 8c3e
000001c0: f7d6 863e d38c c4bc b64e 653e d526 503e
000001d0: ae03 4a3c 6f6b 28be bfe4 15bf 4880 0fbe
000001e0: cc61 00bd b886 0abe 0dff 463e 9553 3bbd
000001f0: 24e7 313d ebe4 7fbd 2ad3 3bbe c51a cd3e
00000200: d525 913e e7ef 53be dc8a ddbe 889c 5d3d
00000210: 2bf8 8f3d e071 24be 5f45 f7bc 9cd1 99be
00000220: 4ac5 d9be 1d91 8a3c a1f3 83bc 54c8 e3bb
00000230: b256 ad3a 20d8 dfbd 8dfe cf3d bd76 eabc
00000240: 3685 a83e 18c3 ccbb 0084 7c3e e82e d13e
00000250: 2b81 11bf 676a 89bd a99c b3be 476c 85bc
00000260: a184 cf3e 6ba8 50be f40e e93e 2a2b 09bf
00000270: cbc0 d73e da38 f33e 8333 043d c427 1a3e
00000280: 5a56 553e 5906 84be 4ce2 7c3e a2a8 efbe
00000290: 150e eebb d23f 3d3e 0d73 d1bd 036e c5bd
000002a0: b3f3 01bf b4e1 21be e3e8 c1bd e493 8e3e
000002b0: 635d b53d 80a8 aabd a9b3 f3bd f666 b03e
000002c0: 284e 0a3f 4ea0 cebc 4b45 c03e f250 5a3e
000002d0: a4d4 a9be df0c 1bbd f175 29bf 22b3 af3e
000002e0: af6f bfbc db01 bbbe f524 c43d 6cba b3be
000002f0: 75fd 773e 8cec 293f 7d2a 9b3e d00a bd3e
00000300: 5bd0 cf3e 9599 c6be 9d40 fbbc 708e a5be
00000310: a61a 8dbd 9e1d 243e 0c41 d7bd 6b9c 52bf
00000320: 47dd 3abf 9a8a 05be 8474 8cbe a30a a0be
00000330: 5bd0 b73e bcb9 243e b300 673c 0ce0 8d3e
00000340: 0dc5 453f f894 c83d 8fe3 a73e 234b cd3e
00000350: 12e7 babe 6fc3 89be cb0c db3d 72a7 febd
00000360: 287e c0bd 51b5 8abe ff85 053f 23a2 4dbf
00000370: cb35 013f 8d90 1b3e c1ed 843e 37cd 043f
00000380: c745 993c 0f59 f8be 03b6 19bf 0145 133d
00000390: 1b0d ca3e 5c3f cbbd 3965 a2bd f858 80be
000003a0: cfac 75be 0480 a13d efe1 0dbd 93ea d03d
000003b0: 8b83 cd3e bb66 a7be 8eb1 b6be ca89 b13d
000003c0: fd56 c73e 562c e9bd 2a6b e53e f654 ca3e
000003d0: 89f0 adbe b791 9ebe df1b ce3e 822c c03d
000003e0: 5cd2 603e b0e4 3bbd af3d 1b3e d359 cfbe
000003f0: d75b 953e 03cb ccbc 894b ab3c 45a7 d53e
-0.2520397 -0.20739476 -0.15402453 0.09071798 -0.33268255 -0.42845896 0.047864582 -0.19200054
0.17797892 -0.11364586 -0.102675736 -0.32927698 0.15448652 -0.32964593 0.0073100086 -0.23809671
-0.0048123533 -0.14399083 -0.27105156 0.042911094 -0.33251393 -0.05317613 -0.7794125 -0.033479717
-0.033001803 -0.47467342 -0.061843112 0.39927325 -0.2861443 -0.22311506 0.048352834 0.07429473
0.47551307 -0.20467746 -0.21449196 -0.2674643 -0.20710173 0.36289132 0.089992255 -0.44585103
-0.2821392 0.40309626 -0.03156248 0.17360778 0.18043648 0.014569555 -0.28998724 0.3206667
0.5194937 0.029734503 0.45876747 0.23076642 -0.5423291 -0.43603343 -0.25646138 0.48351988
0.22480989 -0.28998676 0.42479774 -0.10990349 0.0068343445 0.13706069 0.29538655 0.19945014
0.22760193 -0.19106205 -0.3592576 -0.03456325 -0.13318163 -0.15727852 -0.1076854 -0.47204676
-0.71353006 -0.23509876 -0.30419305 0.027144618 0.13747986 -0.10314742 0.04811841 0.26010782
0.23320839 -0.23214683 0.10964159 0.08172147 -0.39525145 -0.33672395 -0.53123015 0.29927412
-0.2558052 -0.2624471 0.119105235 -0.32497412 -0.11830628 -0.12963991 -0.012548577 0.22005542
0.27235803 -0.32087895 0.09521452 -0.21718138 -0.30400443 -0.15450895 -0.19020034 -0.549053
-0.37969562 -0.07247618 -0.06433733 0.096875325 -0.13991329 -0.22763473 0.004299626 0.2744689
0.2633588 -0.023992931 0.22393307 0.20327313 0.012329979 -0.16447233 -0.58552164 -0.14013779
-0.031343266 -0.13527954 0.19433232 -0.045734007 0.043433324 -0.062474173 -0.18342271 0.40059486
0.28349176 -0.20696984 -0.43270004 0.054104358 0.07029756 -0.16059065 -0.030184446 -0.30042732
-0.42533332 0.016914899 -0.016107382 -0.006951371 0.001322469 -0.109298944 0.101559736 -0.028621072
0.32914132 -0.006248843 0.24659729 0.408561 -0.5683772 -0.06709748 -0.3508046 -0.016286982
0.40530875 -0.20376746 0.4551922 -0.5358149 0.42139277 0.47504312 0.032275688 0.15054232
0.20833722 -0.25786093 0.246957 -0.46808344 -0.0072648623 0.18481377 -0.10227022 -0.09640124
-0.5076248 -0.15808755 -0.09468248 0.27847207 0.08855703 -0.0833292 -0.11899502 0.34453553
0.54025507 -0.025222924 0.37552866 0.2131994 -0.33170044 -0.03785407 -0.6619559 0.34316355
-0.023368685 -0.36524853 0.095773615 -0.35103166 0.2421778 0.66376567 0.30305853 0.36922312
0.4058865 -0.3878905 -0.030670458 -0.32335234 -0.068898484 0.16026923 -0.105104536 -0.82269925
-0.7299389 -0.13041154 -0.27432644 -0.31258115 0.3590115 0.16086477 0.014099288 0.27709997
0.772538 0.097940385 0.327908 0.40096387 -0.36504418 -0.26906916 0.106957994 -0.124342814
-0.093990624 -0.27091458 0.52157587 -0.80325526 0.50472707 0.1519186 0.25962642 0.51875633
0.01871003 -0.48505446 -0.6004335 0.03595448 0.39463124 -0.09924194 -0.07929463 -0.25067878
-0.23991702 0.07885745 -0.034639295 0.102009915 0.40139422 -0.32695565 -0.35682338 0.08668859
0.38933554 -0.113854095 0.44808322 0.39517945 -0.33972576 -0.30970547 0.4025564 0.09383489
0.21955246 -0.04587239 0.15160249 -0.40498218 0.2917163 -0.024999147 0.020910041 0.4172918

sequential_6_1/dense_19_1/BiasAdd/ReadVariableOp:0 f4 [32]
00000000: 8fb9 9a3c b65f bc3c 755d 2cbd 04fe d5bd
00000010: 24b6 063e 7321 b63d 4ddb 23be ee2f 203c
00000020: 3876 91bd e37b e9be 1c90 eabd 55da 17be
00000030: ceea 6abc 94ed 30be 4547 1cbe e80c 7d3d
00000040: 6187 82be d1d5 e9bd 2ddd 953e aa97 f1bc
00000050: 0578 ec3b 4a47 273e 807a 233e e803 ecbd
00000060: 668e 98bd 4f3b bdbe e4f5 073e 2d31 a23d
00000070: 963c 05be 612e 88be 8022 233d 4420 c8bd
0.01888731 0.022994857 -0.042081315 -0.1044884 0.13155419 0.08893099 -0.16001625 0.009777052
-0.071026266 -0.4560233 -0.11453268 -0.14829381 -0.014338208 -0.17278129 -0.15261562 0.061779886
-0.2549391 -0.11417735 0.29270306 -0.029491264 0.007216456 0.16335788 0.15964699 -0.115241826
-0.07449035 -0.3695931 0.13277394 0.07919536 -0.13011393 -0.26597884 0.039827824 -0.09771779

sequential_6_1/dense_18_1/Cast/ReadVariableOp:0 f4 [30, 64]
00000000: 0d27 343e c9c1 f13d 5648 2bbf 523c ccbe
00000010: 528b f5be 78b6 d63e 9806 76be 3617 c13e
00000020: 9944 ddbe 53f7 d43e c3db ba3d fa5e 06be
00000030: 303f 2a3d 799e 2bbe c8a1 d43e 9c8c 17be
00000040: 21a8 1a3e 4dd2 b03c 7c9f abbd ffaf fa3b
00000050: 3ac9 2abe 4517 3abe 3c9c 1b3e 809e 023e
00000060: 03f6 02be 47cb d3bd 5190 c83e 57d0 e43d
00000070: ce6d bf3d bb28 a5be 0c42 dd3a 1181 693e
00000080: dc06 acbe 0032 23be dd07 833e c601 a9be
00000090: 139c 43be dbba 8ebe f222 043e 8cf1 323e
000000a0: 9259 813e b46b a73c 7661 94be 6113 91be
000000b0: dcd1 bebe f474 77be a38c 51bd 816c 853e
000000c0: 2616 a73d 1ca6 963d 5124 f13e 7944 173e
000000d0: 8b74 443f e57e ad3d 0e41 d5be f663 4b3e
000000e0: 8189 f5bd 3ff0 ac3d 16df 593e 3299 f13d
000000f0: eb8d 873e 43c9 ea3e d0ad 293d c947 0abf
00000100: ef2a 14be 1df6 763e c0bd acbe 2167 d33e
00000110: 6d79 dcbd 4c9c d13d b3b2 0dbf fc1c 0e3f
00000120: f3c3 993e 5d0c e2be 1cb4 433e 2b4a c43e
00000130: 63c3 413e bae7 74be 2095 2fbe 23dd 143e
00000140: 9fa8 fc3e b204 8fbf b6ef 2f3e 3306 87be
00000150: fe06 0f3f d173 173e afff 2b3f 9ef0 95bd
00000160: 58da da3e b679 663b d9cb c6bd 3b3e a93e
00000170: 9aee 9dbe f92b aa3e 5d8a af3e 7980 d53e
00000180: d379 233f ce1f 47be ddc6 0ebf 8955 553d
00000190: ebbd ad3d 9450 db3e 4fd2 7bbe 17bd 8a3e
000001a0: ee38 a4be a17f c83c aeaf 2cbe a859 ccbd
000001b0: 7c7d 57bc 5315 89be f8aa 8e3e 522d 8e3e
000001c0: b833 823d 00e6 1d3d 1c6d f8be 87c7 673e
000001d0: ffea b53e 2b55 183e fc39 c4be d3c0 da3e
000001e0: 823d 0b3d 203f 6fbd 8236 c93e 3770 ad3e
000001f0: c5d2 363e 9a91 fb3e 2934 7f3e fd90 133f
00000200: 671c 80be 3c96 bbbe e309 0abe a16b 943e
00000210: 0037 6e3e 5336 823e 6cc2 06be 484a f53d
00000220: ff6c 1f3e b244 92bc 9f53 b43e f917 593e
00000230: 492c 8dbe 7ad3 3ebe d4eb 8bbe 3fe2 b63d
00000240: d6c2 04bf 0168 ad3e 932d e7be 29f8 82be
00000250: 0a0d 8ebe 9010 943e 76fd 033e 2f93 a73d
00000260: 3304 b33e 6d3e f8bd f2db 71be fab4 a53e
00000270: dc8c 05bf c5f6 e6be 7ad5 bcbd c436 3d3d
00000280: faea f7be bb7c dcbe 4206 c73e 5160 edbc
00000290: edca 033e 7682 13bf 1c7e cc3e 1741 723e
000002a0: c9b3 3ebe c45f 293f 0439 603d f11e 19be
000002b0: 4684 8b3e 126e 7cbd e6be 4b3d 1a61 5dbc
000002c0: 2a01 b93e ac56 f73c c7d5 d23e 85c3 f23d
000002d0: df83 22be ce29 a13d 9458 4bbe 7695 77bd
000002e0: 5f62 eebe 7c11 083e ddd3 e43c 9d0b 8f3e
000002f0: 089f e1bd ab8a 82bc 759f 3dbe 2c11 b7be
00000300: bd2c f43c 4c82 95be 1db1 153f 4014 b7be
00000310: a750 a33e f5b5 9b3e f063 493f c4e8 9abe
00000320: b3df a33c e7b3 563e 409e 4bbd 38ac d9bc
00000330: 20d9 57be 0553 373e d946 993e f647 8c3e
00000340: 2a16 6a3e 77eb e43e 79cd 4d3e c3a4 093e
00000350: d0c8 213f 183c f33d 5ab7 aabe 2c6d 89be
00000360: 2aba b1bd b8b3 cbbd 15f5 cf3e bb2f 0e3d
00000370: 56fd 243e f61c 823e 8e13 84be c54a 393e
00000380: 1054 0bbc 0e4a d53b 7aff e83e f482 363f
00000390: ba1c 82bd 9af7 053e 813c b03e 3e77 943e
000003a0: 5ebb 083b 8e02 43be 31b1 32be 6e92 38be
000003b0: 92e8 91bd 5a8b f93c 031b 01bf 2086 bb3d
000003c0: 03fd 943d 6140 1d3d 968f ba3e 3f88 93bd
000003d0: b7ea 303e 3373 35be 1ba8 9fbe 8d2d 18be
000003e0: 6d18 063e 0ade 0b3e e371 84bd bf88 173e
000003f0: 5387 6c3d d500 b1be 5fc2 59bd 11eb dcbd
0.17593022 0.1180454 -0.6690725 -0.3988977 -0.47957855 0.41936088 -0.24025953 0.3771302
-0.43216398 0.41594943 0.091239475 -0.13122168 0.041564167 -0.16759671 0.4152968 -0.14799732
0.15103199 0.021584654 -0.083800286 0.007650375 -0.16678324 -0.18172939 0.15196317 0.12755775
-0.12789159 -0.103415065 0.39172605 0.1117255 0.093471155 -0.32257637 0.0016880645 0.22803141
-0.33598983 -0.15937042 0.25591937 -0.33009166 -0.19102506 -0.27876934 0.12903956 0.17474955
0.2526365 0.020437099 -0.28980607 -0.28335097 -0.37269485 -0.24165708 -0.051159512 0.26059344
0.08158521 0.073559016 0.4709802 0.14772214 0.7674033 0.08471469 -0.41651195 0.19862351
-0.119891174 0.08444261 0.21276507 0.11796798 0.26475462 0.45856676 0.041425526 -0.54015785
-0.14469503 0.24117322 -0.33738518 0.4128962 -0.10765348 0.102348894 -0.553508 0.55512977
0.3003231 -0.44150057 0.19111675 0.38337836 0.1892219 -0.23916522 -0.1714673 0.14537482
0.49347398 -1.1173308 0.17181286 -0.26371917 0.55870044 0.14790274 0.6718702 -0.07321285
0.42744708 0.003516776 -0.097068496 0.3305529 -0.308461 0.33236673 0.3428525 0.4169958
0.63857764 -0.19445726 -0.5577219 0.052083526 0.084834896 0.42834914 -0.24591945 0.2709739
-0.32074684 0.02447492 -0.16863891 -0.09978038 -0.013152476 -0.26774082 0.27864814 0.27768952
0.06357521 0.038549423 -0.48520744 0.22634707 0.3553085 0.14876239 -0.3832549 0.42725238
0.033994205 -0.05840981 0.392994 0.33874676 0.1785384 0.49134523 0.24922241 0.5764311
-0.2502167 -0.36638057 -0.13480334 0.28988364 0.23263168 0.2543207 -0.13160104 0.11977059
0.15568922 -0.017855022 0.35220048 0.21200551 -0.2757285 -0.1863536 -0.2732836 0.08929872
-0.51859796 0.3386841 -0.45151958 -0.25579956 -0.27744323 0.28918886 0.12889656 0.0818237
0.3496414 -0.12121282 -0.23619059 0.32364637 -0.5216806 -0.45110145 -0.09220405 0.046194807
-0.4842146 -0.43063912 0.38871962 -0.028976591 0.12870379 -0.5762094 0.39939964 0.23657642
-0.1862327 0.6616175 0.054741874 -0.1495321 0.27249354 -0.06162841 0.0497426 -0.01351192
0.361337 0.030192696 0.41178724 0.11853699 -0.15870617 0.07869302 -0.19858009 -0.06044527
-0.46559426 0.1328792 0.027933056 0.27938548 -0.11016661 -0.015935263 -0.1851786 -0.3575529
0.02980649 -0.2920097 0.5847338 -0.35757637 0.3189747 0.3041226 0.7866812 -0.3025571
0.020004129 0.20967065 -0.049711466 -0.026571378 -0.2107892 0.17902763 0.29936865 0.27398652
0.22860017 0.44710895 0.20097913 0.13441758 0.6319704 0.11876696 -0.3334301 -0.26841104
-0.08678086 -0.09946388 0.4061667 0.034713488 0.16112265 0.2541272 -0.2579617 0.18094929
-0.008503929 0.006509072 0.45507413 0.7129357 -0.063531354 0.13082734 0.3442116 0.28997225
0.0020863633 -0.19043943 -0.17450406 -0.18024608 -0.071244374 0.030461956 -0.5043184 0.09156442
0.07274821 0.038391475 0.36437672 -0.07203721 0.17277037 -0.17719726 -0.31182942 -0.14861126
0.13095255 0.1365892 -0.06467035 0.14798258 0.057746243 -0.34570947 -0.053163882 -0.10787023

sequential_6_1/dense_18_1/BiasAdd/ReadVariableOp:0 f4 [64]
00000000: e523 d7be 8547 693e de02 1f3d 14b0 673e
00000010: 5c4b 33bd a980 513e ab44 32be e61e 943d
00000020: 7639 13be d0b6 07be 784b 993e 1e1f 613e
00000030: c5e4 cfbe 0895 f6bd d98a da3d 52e8 6a3d
00000040: ffe7 033e 1c5b 543d 7f8a 28be 249b d0bd
00000050: a238 ae3e 8f24 16bf 99cf df3d 2288 adbe
00000060: 08ef 14be 6ace 413d fc2a eebc 9743 503e
00000070: efce c8bd 96c1 0c3e fd43 63be 2a0b 183e
00000080: 3515 33bd b8b0 94bd d94e a53e 1a8a 26be
00000090: cb07 10bf c1ea 713e 148b 23bd 24bf 02bf
000000a0: 5ccd 34bd 7e2a 333d b1d6 53be ad2b 6fbd
000000b0: 7cab 86be 26ef 0ebe 7c96 843e d182 033e
000000c0: efc7 d1bd d92d 16be f2e6 69bd 070c 0fbe
000000d0: 9aa5 343e 0029 8a3c 4a69 22bf 492f 64bc
000000e0: 8afa 6dbe 5a98 8abd 5f8d eabd 8cf2 b6bd
000000f0: 014e cbbd a626 9f3d 5f75 503e 4d7a 2c3d
-0.42019573 0.22781189 0.038821094 0.22625762 -0.04377304 0.20459236 -0.17409007 0.07232456
-0.14377388 -0.13253331 0.2994039 0.21984527 -0.40604225 -0.12040144 0.10671014 0.057350464
0.12881468 0.0518447 -0.16459082 -0.10185841 0.34027582 -0.58649534 0.10928268 -0.33892924
-0.14544308 0.047315992 -0.02907323 0.20338283 -0.098050945 0.13745722 -0.22193904 0.14848009
-0.043721396 -0.07260269 0.32286718 -0.16263619 -0.5626189 0.23624708 -0.039927557 -0.5107291
-0.04414116 0.043741696 -0.20687367 -0.05839126 -0.26302707 -0.13958415 0.2589606 0.12842871
-0.102432124 -0.14665927 -0.057105012 -0.13969432 0.17641297 0.016865253 -0.6344191 -0.013927289
-0.23240104 -0.0676734 -0.11452746 -0.08932981 -0.099269874 0.077710435 0.20357274 0.042108823
